…
            "Downloading data from https://storage.googleapis.com/tensorflow/keras-applications/inception_v3/inception_v3_weights_tf_dim_ordering_tf_kernels_notop.h5\n",
            "87916544/87910968 [==============================] - 0s 0us/step\n",
            "312\n",
            "Model: \"sequential\"\n",
            "_________________________________________________________________\n",
            "Layer (type)                 Output Shape              Param #   \n",
            "=================================================================\n",
            "inception_v3 (Functional)    (None, 2048)              21802784  \n",
            "_________________________________________________________________\n",
            "flatten (Flatten)            (None, 2048)              0         \n",
            "_________________________________________________________________\n",
            "dense (Dense)                (None, 512)               1049088   \n",
            "_________________________________________________________________\n",
            "dropout (Dropout)            (None, 512)               0         \n",
            "_________________________________________________________________\n",
            "batch_normalization_94 (Batc (None, 512)               2048      \n",
            "_________________________________________________________________\n",
            "dense_1 (Dense)              (None, 256)               131328    \n",
            "_________________________________________________________________\n",
            "dropout_1 (Dropout)          (None, 256)               0         \n",
            "_________________________________________________________________\n",
            "batch_normalization_95 (Batc (None, 256)               1024      \n",
            "_________________________________________________________________\n",
            "dense_2 (Dense)              (None, 1)                 257       \n",
            "=================================================================\n",
            "Total params: 22,986,529\n",
            "Trainable params: 22,950,561\n",
            "Non-trainable params: 35,968\n",
            "_________________________________________________________________\n"
          ],
          "name": "stdout"
        },
        {
          "output_type": "stream",
…
